streamlit/forapp/ckpoint/classifier_best_covid.pth (torch, 411206 bytes, 12 tensors)

fc1.weight f4 [256, 129]
000000 36 ad 44 3d c8 77 aa 3d b6 68 94 3c 34 92 9c bd
       0.04801675 0.08323628 0.018116336 -0.076450735
000010 63 67 e1 bc 48 2b 74 3d 96 bf c1 3c 2e e4 b1 3d
       -0.027515119 0.05961159 0.023650926 0.086861
000020 8e 15 b4 bd 38 0a f9 3c f2 98 cc bc 9f 40 4f 3d
       -0.08793174 0.03040038 -0.024975274 0.050598737
000030 96 3f 9f 3c e4 33 51 bb a7 eb c1 3c f2 32 3c 3d
       0.0194395 -0.0031921798 0.023671938 0.045947023
000040 45 60 7d 3d 9d 57 69 3d 88 3c 76 3d ca c2 0d 3d
       0.061859388 0.05696832 0.06011632 0.034609593
000050 5c 35 4e bd d0 27 ce 3c f2 f8 a7 bd e4 18 bf bc
       -0.050343856 0.025165468 -0.082017794 -0.023327298
000060 45 e9 a2 bd 25 fd 7d 3d d5 e7 36 bd af 88 73 bd
       -0.07954649 0.062008996 -0.044654686 -0.059456524
000070 25 45 c5 3c 88 a8 7b 3d 27 1e 5a bc d5 e2 aa bc
       0.024080822 0.06144002 -0.013312853 -0.020860115
000080 eb 12 8b 3d 2c 5a 33 bd b1 e8 70 3d f3 22 73 b9
       0.06790718 -0.043787166 0.05881566 -0.00023187305
000090 e9 ea 59 3c 08 58 6a bd 6a 4c 6c bd 94 33 1b b9
       0.013300636 -0.05721286 -0.05769006 -0.00014801166
0000a0 41 a0 61 bd 08 de a8 bd 2c 36 a8 bd 19 21 1f 3c
       -0.05508447 -0.08245474 -0.082134575 0.009712481
0000b0 aa d2 d3 bc a2 7f 92 bd d7 a4 35 3b 6a fd b0 3d
       -0.025857288 -0.0715325 0.002771666 0.08642085
0000c0 49 76 15 bc c2 a6 b7 3b 40 80 09 3d bb bd 99 3d
       -0.00912244 0.005604596 0.033569574 0.07506891
0000d0 59 c0 2d bd 35 78 0f 3d da 52 57 bd de 64 09 bd
       -0.042419765 0.035026748 -0.052569248 -0.03354346
0000e0 a0 cd 01 ba 25 9d 8e bd c0 9f a9 bc 2b a6 39 bd
       -0.00049516 -0.06963567 -0.020706058 -0.045324486
0000f0 88 1a a0 3d f3 7d 2d 3d bd 10 11 3d 48 5f 3f 3d
       0.078175604 0.042356443 0.035416353 0.046721727
000100 c2 07 61 bd 37 04 cc 3c f0 4c f4 bc d1 27 8d 3d
       -0.05493904 0.024904354 -0.029821843 0.0689236
000110 9b 08 88 3d de 07 9b 3c 9c 97 8e bd ab 73 51 3d
       0.06642266 0.01892465 -0.06962511 0.0511357
000120 f9 55 10 bc ab 54 80 3d 70 80 d2 3b 45 42 e9 bc
       -0.00880956 0.06266149 0.0064240023 -0.028473983
000130 be 2b 8e bd 83 b3 99 3d b6 c7 68 bd 42 97 5f bc
       -0.06941937 0.07504942 -0.056831084 -0.0136469025
000140 64 fd d0 3b 7c d2 98 3b b4 7e 01 3d 93 bf 91 3b
       0.0063778628 0.0046637636 0.031614974 0.0044478863
000150 48 35 67 3c ac 80 90 3d 9b 85 a8 bd fb 2b 28 3c
       0.014111824 0.07055792 -0.08228608 0.010264392
000160 ff d7 4b bd 80 73 2b 3d bb 37 ac 3d 6c 7a 2f 3d
       -0.049766537 0.041858196 0.08409067 0.04284136
000170 38 f3 39 bd 51 94 80 3d 00 a6 a0 3d d9 da 86 bd
       -0.045397967 0.06278289 0.07844162 -0.06584711
000180 65 99 07 bd 05 b3 32 bd 21 67 fe 3c b6 e0 81 3c
       -0.033105273 -0.043627758 0.031055035 0.01585422
000190 37 39 a5 bd 59 68 b3 3d 37 07 10 3c bf 53 62 bc
       -0.080675535 0.08760137 0.008790783 -0.013813912
0001a0 3c 78 a3 bd 1c 3f 85 bc 4d 25 0e 3c a9 ed 2f bc
       -0.07981917 -0.016265444 0.008675885 -0.010737815
0001b0 0d c1 9e bd 5d 58 82 3c d7 f2 09 3c 29 c1 41 bd
       -0.07751665 0.015911276 0.008419714 -0.047303353
0001c0 b9 31 e6 bc c3 c9 64 3d 31 d5 99 bd fa 43 9a bd
       -0.028099881 0.055856477 -0.07511366 -0.07532497
0001d0 1d 1f 66 3d 10 fc 8e 3c 15 83 8b bd 6b c8 95 bd
       0.056182016 0.017454177 -0.06812111 -0.07313617
0001e0 cd 69 bd 3c 90 1f 02 3d 32 54 03 bd 31 bf a0 bd
       0.023121739 0.03176838 -0.032062717 -0.07848967
0001f0 d0 d2 3b 3d 4b c9 08 bc 5c 20 0a bd 68 8c 20 bd
       0.045855343 -0.008348773 -0.033722267 -0.0391964
000200 68 44 a3 3d e2 94 60 3d 4e eb 44 bd 63 c5 56 bc
       0.07972032 0.054829486 -0.048075967 -0.013108584
000210 6f 4e 65 3c 23 a2 a0 bd 11 85 0c bd fb 7d 84 bd
       0.013995751 -0.07843425 -0.03430659 -0.06469341
000220 12 69 bb bc ef 13 1e bd 90 7b a9 3a a9 30 6d bd
       -0.02287725 -0.03859323 0.0012930501 -0.057907734
000230 af 12 16 3d 92 df 71 bd 78 75 aa 3d 9c fd 5a 3d
       0.03663891 -0.059051104 0.08323187 0.053464517
000240 69 ae a9 bd 4f 41 5c bc 4b 54 52 3d 95 40 51 3d
       -0.08285219 -0.013443305 0.05134992 0.05108698
000250 5c cf 33 bd de 30 ed 3c 33 65 1d bd 65 5e 27 3c
       -0.043898925 0.028953966 -0.03842659 0.0102153765
000260 12 ba 9e 3d 3f 18 a0 3d d9 50 17 3d f6 29 ca 3b
       0.07750334 0.078171246 0.036942337 0.006169553
000270 61 60 c7 3c 8e 74 20 3b aa d2 95 3c fb f1 50 bd
       0.02433795 0.0024483535 0.018288929 -0.05101202
000280 1a 48 73 bd ef 16 97 bc 4b 49 15 3d 8e a2 88 bb
       -0.059394933 -0.018443553 0.03644685 -0.0041697687
000290 bf 73 31 ba 41 5d 34 3d 1f 9f cd 3c 95 9c 90 3d
       -0.00067692617 0.044034246 0.025100289 0.07061116
0002a0 ab 8d 63 bc 3c e9 0a 3c 86 64 36 bd d8 5e 5f 3d
       -0.013888757 0.008478459 -0.04452946 0.05453381
0002b0 7b f0 2a 3d d5 0a 6d bc ad b8 a7 bd c3 aa 97 bc
       0.041733246 -0.014467915 -0.08189521 -0.018514043
0002c0 2a 21 a4 3c 8a a4 94 3c 65 e5 a6 3d 72 21 65 bc
       0.020035345 0.018144865 0.08149222 -0.013985025
0002d0 de 7c a8 bd 03 c9 8a ba 00 18 79 bd 40 17 85 3c
       -0.082269415 -0.0010588471 -0.060813904 0.016246438
0002e0 94 8b 2e bd cd d4 98 3d 2d 25 61 bd af 0f 3d 3d
       -0.04261358 0.074624635 -0.054967094 0.046157535
0002f0 7b 75 2f bd a7 0b b1 bd c4 29 ae 3d 2f b5 07 3d
       -0.042836647 -0.08644801 0.0850406 0.033131775
000300 4b 1d 45 3d d5 1d 1b 3c e8 7b 7e 3c 88 9e 1a bd
       0.04812364 0.009467562 0.015532471 -0.037748843
000310 7d 18 bd bc 11 c8 85 3c 24 56 b2 3d 6b 11 a5 39
       -0.023082966 0.01633075 0.08707836 0.0003148423
000320 48 8f b3 3d 5a 1e 96 3d 0f 65 b9 bb 09 43 d6 bc
       0.08767563 0.07330008 -0.005657799 -0.026155012
000330 ef 90 31 3d 11 ab 15 3c 80 4a 8e 3d 77 56 29 bd
       0.04335111 0.009135024 0.069478035 -0.041342225
000340 4b 72 c7 bc a8 c4 c0 bb 17 78 fa bc 24 5f 7f bd
       -0.024346491 -0.0058828183 -0.030574841 -0.062346593
000350 6f 96 87 bd 6e b0 60 3c 15 2d 38 bd 21 bf 34 3d
       -0.0662049 0.013713939 -0.04496487 0.044127587
000360 da 2f a9 bd e1 2e 39 bd e0 02 97 3d c0 03 db 3c
       -0.0826108 -0.045210723 0.07373595 0.026735187
000370 cb df 48 bb 4c 5d 7c 3d 32 e7 95 3d f5 46 8f bd
       -0.003065097 0.061612412 0.07319488 -0.06995956
000380 39 77 8f 3d 63 10 07 bd 76 28 58 3d 47 f6 d3 bb
       0.07005162 -0.032974612 0.05277296 -0.0064685675
000390 22 89 24 bd 7e 5a 0f bd f0 be 96 3d e7 09 2b bd
       -0.040169843 -0.03499841 0.07360637 -0.04175749
0003a0 03 26 6b 3c fa ba c2 bc 9b 3a 28 3d c3 5e 3d 3d
       0.014352324 -0.023770798 0.041071516 0.04623295
0003b0 ea 16 3c 3d d0 13 14 3d 77 76 57 bd a9 9e 2d 3c
       0.04592029 0.036151707 -0.05260321 0.01059691
0003c0 dc 06 09 bd c6 c3 90 bd 78 8d 8f 3c 48 15 2b 3c
       -0.033453807 -0.07068591 0.017523512 0.010442086
0003d0 5e ad ac 3d 61 9d e6 bc 2b 9a 89 3d 58 a1 99 3c
       0.08431505 -0.028151216 0.06718858 0.018753693
0003e0 23 c6 77 3d af 34 47 3d 3c 9e 98 3d af 58 42 bd
       0.060491692 0.048634227 0.07452056 -0.047447857
0003f0 66 ac 30 bd bc 9c 2d 3d 46 e4 05 bd 6c 10 7c bb
       -0.043133162 0.0423858 -0.0326884 -0.0038461937

fc1.bias f4 [256]
000000 c2 ff a6 bd d9 57 52 bb 5d 98 4e bc cd 9e b4 bd
       -0.08154251 -0.0032095818 -0.012609568 -0.08819351
000010 fd 31 8f 3d 3c cc 71 bc 2e 9a 22 bc 99 a4 a3 3d
       0.069919564 -0.014758166 -0.009924455 0.07990379
000020 9f 16 15 3c de 47 93 3d 9b da b8 3c 6e 09 b9 3d
       0.009099632 0.07191442 0.022565177 0.09035002
000030 1f 94 fe 3c 57 76 fa bc 03 a5 35 3c 7a 6a 86 bd
       0.031076489 -0.030574007 0.011086705 -0.065632775
000040 28 9d af bd 07 cc a7 bd e6 36 2c bd f9 f9 0d 3d
       -0.08574897 -0.08193212 -0.042044543 0.03466222
000050 75 fc 33 bd 01 3d a5 3b 96 77 60 bd bc 3b 78 3c
       -0.043941934 0.0050426726 -0.054801546 0.015150961
000060 a6 d3 c0 3c bf 4e 9e 3d b4 43 94 bd 9a fc a3 3d
       0.023538422 0.077298634 -0.07239476 0.08007164
000070 71 be ac bd e6 7b d8 bc 2f 9f 53 bd 41 32 c6 3b
       -0.08434761 -0.026426267 -0.05166548 0.006048471
000080 7c 99 2e bb 00 e8 80 3d 78 9f 81 3c a0 0b 89 3d
       -0.0026641777 0.062942505 0.015823111 0.066916704
000090 49 02 6a 3d 8e f2 cc 3c ef 05 b3 39 61 d3 73 bd
       0.057131086 0.025018003 0.0003414596 -0.05952776
0000a0 e9 dc d4 bc d9 00 88 3d f5 c1 f3 3b 34 f8 62 bd
       -0.025984244 0.06640787 0.007438893 -0.055412486
0000b0 eb 5b 28 bd cb 0e 08 bd 8d e9 0e 3d 5f e7 5b bd
       -0.041103285 -0.033217233 0.0348907 -0.05368745
0000c0 31 95 31 3d 55 b0 73 3d b4 d5 af bd 98 21 c6 bc
       0.04335517 0.059494335 -0.085856825 -0.02418594
0000d0 e5 6a 3f 3d 21 fc 32 3d c5 5c a9 3d dc 26 e5 bb
       0.046732802 0.04369748 0.082696475 -0.006993158
0000e0 07 34 29 bc ea d0 9b 3d 1d 14 0b 3c 08 c2 99 bd
       -0.010327346 0.076082066 0.008488682 -0.07507712
0000f0 0f 44 51 3d 43 58 a9 3d 99 cc 9d bd 6a 5b 14 bd
       0.051090296 0.08268788 -0.077050395 -0.03621999
000100 03 13 aa 3d 27 65 82 bb 25 05 92 3d 0f 9a 62 3d
       0.083044074 -0.0039793435 0.071298875 0.055322703
000110 58 ed 07 3d b7 d8 b2 bc 03 d3 8e bd f5 a8 37 3c
       0.033185333 -0.021831853 -0.06973841 0.011209716
000120 d5 e6 ad bd fb 0c ce bc 7b b0 ad bd c1 0b 9d bd
       -0.08491293 -0.025152674 -0.084809266 -0.076682575
000130 88 a2 47 3d e2 fc 00 bd a3 73 a8 bd 92 d6 1f 3c
       0.048738986 -0.031491168 -0.08225181 0.009755747
000140 9a 13 ac 3d 24 08 df 3c 8c 0d d1 3c b1 9a bf 3c
       0.08402176 0.027225561 0.025519155 0.023389192
000150 02 7f 5d 3d b5 eb a2 bc 78 27 37 3c 82 f3 4e 3d
       0.054076202 -0.019887784 0.011178844 0.050525196
000160 8c 5c 92 3d 96 0f 1e bc dd 2c 79 3d 34 f7 9f bd
       0.07146558 -0.009647271 0.0608338 -0.07810822
000170 90 93 c1 3b 69 14 40 bd ce 89 08 3d 13 22 a7 3d
       0.0059074834 -0.046894465 0.033334546 0.08160796
000180 68 55 6a 3d 05 61 a9 3d 5e f6 01 bd 9d 0b 6f bd
       0.057210356 0.08270458 -0.031729095 -0.058360685
000190 a9 53 a7 bd 44 b8 8c 3c 96 2e 66 bd 0e 98 95 bd
       -0.08170254 0.017177708 -0.05619677 -0.07304393
0001a0 86 a4 8f 3d 27 44 ec 3c 03 61 1b 3b d2 17 71 bd
       0.07013802 0.028841091 0.0023708947 -0.058860607
0001b0 2b e6 20 bd a4 b1 38 bc 50 1f a3 bd e8 8b 0f ba
       -0.039282005 -0.011272822 -0.07964957 -0.0005475865
0001c0 6f 28 8c bd e5 4f 2a 3d 03 63 49 3d ae 33 b5 3b
       -0.068436496 0.0415801 0.04916669 0.0055298423
0001d0 90 5f ed 3c fb 03 8b 3d 43 27 33 bc cc ea 8f bc
       0.028976232 0.067878686 -0.010934654 -0.017568015
0001e0 f8 b3 a9 3d 0f 15 8f 3d 67 25 aa bb f1 b6 b5 bd
       0.082862794 0.069864385 -0.005192447 -0.08872784
0001f0 6c 13 95 3c 62 6f 79 bd b5 be b4 bc 3d 2a b3 3d
       0.018197738 -0.06089724 -0.022063592 0.08748291
000200 fa 86 8d 3d 22 1a a0 bd 91 8c 45 bd 69 bd 29 bd
       0.0691051 -0.078174844 -0.048229758 -0.0414404
000210 5c cc c5 3c 8b c1 78 bd 03 b1 da bc 9e 1c e0 bc
       0.024145298 -0.060731452 -0.026695734 -0.027357396
000220 47 5f 88 bd a3 00 82 3d 04 1d 68 3c cd 55 4a 3b
       -0.06658798 0.06347778 0.014167074 0.0030873895
000230 99 65 8c 3d 3d bc 01 bc d3 e3 45 bd fe cc a3 bc
       0.06855316 -0.007918415 -0.048312973 -0.019995209
000240 da 57 8d bd 03 80 7d bd 90 c9 39 3c d9 87 10 3c
       -0.06901522 -0.06188966 0.01133956 0.008821451
000250 8f df f6 3b 63 ad 9a bd c4 99 78 bd a3 62 6e bd
       0.0075339745 -0.07552602 -0.060693517 -0.058199536
000260 bc e7 aa bd 8a c6 06 bd f4 f2 d4 3c 09 d5 aa bd
       -0.08344981 -0.032904185 0.025994755 -0.083414145
000270 b5 17 8b 3d 9a 12 27 3c 69 87 45 3d c9 18 93 3d
       0.06791631 0.010197306 0.04822484 0.07182462
000280 97 e1 3a 3b bf f4 29 3d 17 b0 21 3d 75 70 2e 3d
       0.002851581 0.041493174 0.039474573 0.042587716
000290 e0 9a c9 bb 3f ea 57 3d 0a 2a a8 3d 6f 40 42 3d
       -0.0061524957 0.05271363 0.08211143 0.04742473
0002a0 39 c4 34 bc 7c 86 92 bd 62 84 f1 bc 05 30 f3 ba
       -0.011033111 -0.07154557 -0.02948207 -0.001855374
0002b0 b8 a8 57 bc 35 67 c4 3c a1 6f 5a 3d 57 b3 8c bd
       -0.013162784 0.023974994 0.053329114 -0.06870144
0002c0 e0 05 4a bd 8c 5d a9 3d 33 57 cc bb 6a 88 5d 3d
       -0.04932201 0.08269796 -0.006235981 0.054085173
0002d0 5d 5f 30 3d 6c 12 69 3d 61 ad 8b bc 99 d5 32 3c
       0.043059696 0.056902334 -0.017050447 0.010915183
0002e0 8e 7b 73 3d 1a 25 c2 3c 9c c0 02 bd cf 84 10 3d
       0.059444003 0.023699332 -0.031921968 0.035282906
0002f0 2f 97 75 bd 1f 2a 9e bd cd a1 8e 3d e7 c3 b6 3d
       -0.059958633 -0.07722878 0.06964455 0.08924084
000300 8a fb 08 bd 3b d8 ac 3d 7b 24 e5 3b 38 5e b7 bd
       -0.03344301 0.0843968 0.006992874 -0.08953518
000310 6d 9e f6 3c 7f e6 4c bd 5a 97 a8 3d 7c 1c 62 bd
       0.03010484 -0.050024506 0.08231993 -0.055202946
000320 e1 8d 29 3b 8c d0 83 bd 21 f3 a4 3a 2b 2d 98 3d
       0.002587192 -0.064362615 0.0012584665 0.0743049
000330 e4 76 03 3d 4d f9 32 bd 64 8a 80 3d 4d 0c 16 bd
       0.032095805 -0.043694783 0.06276396 -0.036632825
000340 45 89 9b 3d 54 f0 91 bd 9e 90 19 bd f5 63 34 bd
       0.075945415 -0.07125917 -0.037491433 -0.04404064
000350 54 b7 82 bd 8a 38 45 bc 46 72 b3 bd fa d6 9a 3c
       -0.06382623 -0.012037406 -0.0876203 0.018901337
000360 15 1a 8f 3d 06 3f 85 bd 52 dc 74 bd a7 f9 97 bd
       0.06987397 -0.065061614 -0.059780426 -0.07420664
000370 21 7b 2b 3d d2 2f 1c bd 67 c6 a8 bd a9 84 82 bd
       0.04186547 -0.038131543 -0.08240967 -0.06372959
000380 4e 24 9e bd 3f 86 90 3c 5e 8a 1a bd 34 74 80 bc
       -0.07721768 0.017642139 -0.037729613 -0.01568041
000390 1a 5e a5 bd 2e d7 9c 3d 8e 1d c0 3c a4 4b 82 bc
       -0.08074589 0.0765823 0.023451593 -0.015905209
0003a0 02 14 66 bd f0 48 b6 bd 7d b2 49 bd 00 a1 96 bc
       -0.056171425 -0.089006305 -0.049242485 -0.018387318
0003b0 08 4b 3d 3d de 43 a5 bd 47 0c 1b 3d 1a 59 2d 3d
       0.046214134 -0.08069585 0.037853505 0.042321302
0003c0 66 ef 39 bc 87 68 5a 3d 41 47 a8 3d a4 e1 16 bd
       -0.011348581 0.05332234 0.082167156 -0.03683628
0003d0 ce 92 2a 3c 47 0d b4 bc 97 e9 1b bd 0b af 2f bd
       0.0104109775 -0.021978987 -0.038064566 -0.042891543
0003e0 c2 7a 6c 3d 1a d2 5e bd a8 58 16 3d 3d b7 d7 ba
       0.05773426 -0.054399587 0.036705643 -0.0016457808
0003f0 2c 71 a8 bd e6 58 65 3c 19 5c 64 3d dd bc ef bc
       -0.08224711 0.013998246 0.055751894 -0.029264862

fc2.weight f4 [2, 256]
000000 88 e2 02 3d 1e 05 37 3d 4f 28 89 3c 24 4c 4b 3d
       0.03195432 0.044682615 0.016742853 0.04963316
000010 ad c4 6d 3d 58 49 46 3d 5c 5f 23 bd be 51 98 3c
       0.058048893 0.04840979 -0.039885864 0.018593665
000020 e8 5b 9a 3c 2c be 00 bd 80 ce 77 3b c6 be c5 bc
       0.018842652 -0.031431362 0.0037812293 -0.02413882
000030 10 77 cf 3b 1a 9b 38 bd 6e 47 18 3d 7a 3d 32 3d
       0.006331332 -0.04506979 0.037177496 0.04351566
000040 3b af 48 3d e5 af 71 3d bc 12 c8 bc 70 99 31 3c
       0.048995238 0.059005637 -0.024422996 0.010839805
000050 5c 2e a7 bb 7f e5 18 3d 58 8e 52 bc c0 76 eb 3a
       -0.005101962 0.03732824 -0.01285132 0.0017964467
000060 00 1f 04 3c ec af 76 bd 6e b6 5f bd 5d f8 15 3b
       0.008064032 -0.060226366 -0.054617338 0.0022883632
000070 ca d5 11 3d 67 6a 1f 3d c7 ad 65 3b 7d 2a a5 3c
       0.035604276 0.038919833 0.0035046206 0.020161862
000080 96 f1 f3 bc cc 34 30 bd a6 1a 4c bd 28 b5 ac bc
       -0.029778283 -0.0430191 -0.0498301 -0.021082476
000090 16 d3 71 3d 78 12 43 bc d0 84 57 bc 54 92 0e bd
       0.059039198 -0.011906259 -0.013154224 -0.034807518
0000a0 8c c3 4d 3d e4 e4 21 bc 88 8f e4 bc 67 4d 3c bd
       0.050235316 -0.009881232 -0.027900472 -0.045972254
0000b0 2b a7 cd bc b4 50 b4 bc 6c 23 cd bc 8c 83 85 3c
       -0.025104126 -0.022011138 -0.025041305 0.016298078
0000c0 00 c1 e7 b9 4e 51 8e ba b2 01 0f 3d 48 34 4d 3d
       -0.0004420355 -0.0010857971 0.034913726 0.050098687
0000d0 34 db e1 3c 1b d3 fe bb 56 e3 bd bc dc b9 3f bd
       0.027570345 -0.0077766306 -0.023179691 -0.04680811
0000e0 3d 34 3a 3d bf 6e 98 3c 18 0e 6e 3c f0 5e 95 3c
       0.045459975 0.018607495 0.014529727 0.018233746
0000f0 93 f5 f9 bc ae 0d 51 3d a9 9e ea bc 92 3b 17 3d
       -0.030512607 0.051038437 -0.028640108 0.036922045
000100 b8 5a 99 3c 32 d0 08 bd a4 6e d7 3c 2a 0c 58 3d
       0.018720016 -0.033401676 0.026297875 0.052745976
000110 3a 46 a2 39 34 c1 34 bd 16 2d 61 3d b0 1d 54 bd
       0.0003095137 -0.044129565 0.054974638 -0.051786125
000120 ee b0 2a 3d 5c a1 03 3d 68 95 27 3d 94 61 30 3d
       0.04167264 0.032136306 0.04091397 0.043061808
000130 00 ea 4c bc c0 7c 34 3b ca 2b 0b bd 2a 12 1f ba
       -0.012506962 0.0027540177 -0.033977307 -0.00060680753
000140 b8 dd f2 3c 40 80 a8 ba 80 6c 29 bd 54 a6 dd 3c
       0.02964674 -0.0012855604 -0.04136324 0.02705685
000150 e4 ef 27 3d 74 0f c2 3c af 9d ee bc 25 67 cc 3b
       0.041000262 0.02368901 -0.029127924 0.0062378817
000160 84 0f 3a bd 6e 87 34 3d 04 04 bb ba 29 8e af 3c
       -0.045424953 0.04407447 -0.0014268165 0.021430092
000170 c0 9d 31 bb 1c f1 5b 3d 3c 7c 51 3d a0 00 4e 3d
       -0.0027102083 0.053696737 0.05114387 0.050293565
000180 47 b8 26 3d e8 d6 89 3c 98 92 22 3d f5 c5 31 bd
       0.040703084 0.016826108 0.039690584 -0.043401677
000190 e2 4d 36 3b e8 12 09 3d e1 12 31 bd a0 54 4f bb
       0.0027817418 0.033465296 -0.043230895 -0.0031636134
0001a0 e0 4a 8f 3b 9e 97 bc 3c b0 0d 67 bd 3c 6e 32 bd
       0.0043729395 0.023021515 -0.056409538 -0.04356216
0001b0 42 8c 6b bd 78 a1 21 bb 72 e0 3d 3d e4 38 c2 bc
       -0.057506807 -0.0024662893 0.046356626 -0.023708768
0001c0 b8 57 2e 3c 6c 37 30 3d 20 f5 3b bc dc 09 6b bd
       0.010641031 0.043021604 -0.011472017 -0.05738245
0001d0 82 ea 63 bc fe 9f 7f bd 1c 9d d9 bc ca 62 7b 3d
       -0.0139108915 -0.06240844 -0.026564173 0.06137351
0001e0 dd c7 19 bb fc b7 67 bd 62 1a 71 3d cf b3 24 bd
       -0.0023465075 -0.056571946 0.05886305 -0.04021054
0001f0 43 c3 5e bc 69 7e fc bc da c8 34 3c 24 92 9a bc
       -0.013596359 -0.030821996 0.011034215 -0.018868513
000200 f0 41 2e 3d 34 4e 47 3d 3c d4 ce bc 00 59 be bb
       0.04254335 0.048658565 -0.025247686 -0.0058089495
000210 d0 9e 79 3c 5d 44 53 bd 4e b2 6f bd 71 8e 9e 3c
       0.015235618 -0.05157887 -0.058519654 0.01935503
000220 a8 6f 40 bd 79 80 e0 3c 6d 3e eb bc 83 d3 67 bd
       -0.046981484 0.02740501 -0.02871629 -0.056598198
000230 c8 d9 ec 3c 90 74 b9 3b 4a 6b 27 bd b0 f3 d9 bc
       0.02891244 0.0056596473 -0.040873803 -0.026605457
000240 9e d0 7e bd f0 4d 83 bb 84 1b 22 bd 5a 6e 02 3d
       -0.06221067 -0.0040070936 -0.039577022 0.03184352
000250 4e 04 1b 3d 00 5a 2f 3b 57 dc a2 3c 3d 15 4f bd
       0.037845902 0.0026756525 0.019880457 -0.050557364
000260 2a 00 47 bd a4 46 3c bd a5 4a 29 bd 64 51 2b 3d
       -0.04858414 -0.045965806 -0.041330952 0.041825667
000270 e8 84 bf 3c 34 51 08 3d 34 7d d7 bc 96 ce 3b 3d
       0.023378804 0.033280566 -0.026304819 0.045851313
000280 fc 0e 47 3d c8 59 06 bc 9c 0c 47 bd 66 4b 3b 3d
       0.048598275 -0.008200116 -0.04859601 0.045726202
000290 30 17 da bc ce 5a 7d 3d bf aa 44 bc 13 eb 5c 3d
       -0.026622385 0.061854176 -0.0120036 0.05393512
0002a0 5a f4 5f 3d da 3d 44 3d ce 93 7d bc 92 ef 36 3c
       0.05467639 0.04791055 -0.015477134 0.011165516
0002b0 e0 a9 21 3c 10 78 fe bc 50 7a a9 bc e6 c1 1e 3d
       0.0098671615 -0.03106311 -0.020688206 0.038759135
0002c0 18 41 49 bc a6 7d 30 3d 77 2b d0 3c fd f5 1c bd
       -0.012283586 0.043088578 0.02541135 -0.03832053
0002d0 55 13 5e 3d 0f cc e0 3b 6e 41 3f 3d 84 23 ac 3c
       0.054217655 0.006860263 0.046693258 0.021013029
0002e0 33 24 5b bc 64 93 f7 3c 80 e3 7c bb 04 51 14 bd
       -0.01337533 0.030221649 -0.003858775 -0.036210075
0002f0 12 97 12 3d 65 53 ef 3c b4 b5 42 bb 8a a1 5e bd
       0.035788603 0.02921457 -0.0029710354 -0.054353274
000300 c5 7c 4c 3d 06 dd 6c bd 80 0f 5b bd 2d ad 61 3d
       0.049923677 -0.057827972 -0.05348158 0.055096794
000310 78 13 a3 bc 78 31 01 3c 36 25 20 bd 9e 9c 6b bd
       -0.019906744 0.007885329 -0.039097987 -0.05752241
000320 40 95 04 bd 2e 78 05 3d 40 96 20 3b ee 9d 21 3d
       -0.0323689 0.032585315 0.0024503618 0.039457254
000330 ef 3c 5f 3c 04 71 b7 3c 2c 23 61 bd 86 bf 25 3d
       0.013625368 0.022392757 -0.054965183 0.040465854
000340 c2 f6 24 bd 8c 6d f1 3c 90 7e 1e 3c de 71 74 bd
       -0.04027439 0.029471181 0.00967373 -0.059678905
000350 be 19 59 3d 20 2b 45 bd cc f6 6f 3d 3a ae 30 bd
       0.053003065 -0.04813683 0.058584973 -0.043134905
000360 f4 2c b0 bc 11 03 96 bc ee 79 56 bd 0e 99 42 bd
       -0.02150581 -0.018312009 -0.052362375 -0.047509246
000370 18 5a fe 3c 64 35 f1 bb 04 e8 64 bd 03 dd de 3c
       0.03104882 -0.007361101 -0.05588533 0.027204996
000380 2e 3a 7f bd b4 e3 62 3d c8 6f 5b 3d c0 7b ca 3a
       -0.062311344 0.055392936 0.0535734 0.0015448257
000390 b1 c5 17 bd 88 ab 3d bd c6 b6 26 3c e0 bb e8 3b
       -0.037053768 -0.046306163 0.0101754125 0.0071024746
0003a0 00 e2 42 b9 85 c9 ee bc f9 46 fa 3c e8 5b 01 bd
       -0.00018585473 -0.029148826 0.03055142 -0.03158179
0003b0 e2 3f cf 3c 10 31 e2 3c 64 e8 01 3d 1a d1 39 3d
       0.025299016 0.027611285 0.031715766 0.04536543
0003c0 20 5e 4f bd a6 91 71 3d c8 05 5d 3d 99 15 24 3c
       -0.050626874 0.05897679 0.05396059 0.010014915
0003d0 66 fb 46 bd 72 07 29 bd 80 33 1f 3a da a4 50 3d
       -0.048579596 -0.041266866 0.0006073043 0.050938465
0003e0 1b b4 0a 3c 04 80 1c 3d 68 6b 24 bc 04 50 23 bd
       0.008465792 0.038208023 -0.010035373 -0.03987123
0003f0 f4 44 db 3c 61 40 1f 3d 2b 88 ed bc 8c e1 85 bc
       0.026766278 0.038879756 -0.028995594 -0.0163429

fc2.bias f4 [2]
000000 82 07 04 bc 6a b4 a7 bc
       -0.008058431 -0.02047177

exp_avg f4 [256, 129]
000000 00 00 00 00 00 00 00 00 00 00 00 00 00 00 00 00
       0.0 0.0 0.0 0.0
000010 00 00 00 00 00 00 00 00 00 00 00 00 00 00 00 00
       0.0 0.0 0.0 0.0
000020 00 00 00 00 00 00 00 00 00 00 00 00 00 00 00 00
       0.0 0.0 0.0 0.0
000030 00 00 00 00 00 00 00 00 00 00 00 00 00 00 00 00
       0.0 0.0 0.0 0.0
000040 00 00 00 00 00 00 00 00 00 00 00 00 00 00 00 00
       0.0 0.0 0.0 0.0
000050 00 00 00 00 00 00 00 00 00 00 00 00 00 00 00 00
       0.0 0.0 0.0 0.0
000060 00 00 00 00 00 00 00 00 00 00 00 00 00 00 00 00
       0.0 0.0 0.0 0.0
000070 00 00 00 00 00 00 00 00 00 00 00 00 00 00 00 00
       0.0 0.0 0.0 0.0
000080 00 00 00 00 00 00 00 00 00 00 00 00 00 00 00 00
       0.0 0.0 0.0 0.0
000090 00 00 00 00 00 00 00 00 00 00 00 00 00 00 00 00
       0.0 0.0 0.0 0.0
0000a0 00 00 00 00 00 00 00 00 00 00 00 00 00 00 00 00
       0.0 0.0 0.0 0.0
0000b0 00 00 00 00 00 00 00 00 00 00 00 00 00 00 00 00
       0.0 0.0 0.0 0.0
0000c0 00 00 00 00 00 00 00 00 00 00 00 00 00 00 00 00
       0.0 0.0 0.0 0.0
0000d0 00 00 00 00 00 00 00 00 00 00 00 00 00 00 00 00
       0.0 0.0 0.0 0.0
0000e0 00 00 00 00 00 00 00 00 00 00 00 00 00 00 00 00
       0.0 0.0 0.0 0.0
0000f0 00 00 00 00 00 00 00 00 00 00 00 00 00 00 00 00
       0.0 0.0 0.0 0.0
000100 00 00 00 00 00 00 00 00 00 00 00 00 00 00 00 00
       0.0 0.0 0.0 0.0
000110 00 00 00 00 00 00 00 00 00 00 00 00 00 00 00 00
       0.0 0.0 0.0 0.0
000120 00 00 00 00 00 00 00 00 00 00 00 00 00 00 00 00
       0.0 0.0 0.0 0.0
000130 00 00 00 00 00 00 00 00 00 00 00 00 00 00 00 00
       0.0 0.0 0.0 0.0
000140 00 00 00 00 00 00 00 00 00 00 00 00 00 00 00 00
       0.0 0.0 0.0 0.0
000150 00 00 00 00 00 00 00 00 00 00 00 00 00 00 00 00
       0.0 0.0 0.0 0.0
000160 00 00 00 00 00 00 00 00 00 00 00 00 00 00 00 00
       0.0 0.0 0.0 0.0
000170 00 00 00 00 00 00 00 00 00 00 00 00 00 00 00 00
       0.0 0.0 0.0 0.0
000180 00 00 00 00 00 00 00 00 00 00 00 00 00 00 00 00
       0.0 0.0 0.0 0.0
000190 00 00 00 00 00 00 00 00 00 00 00 00 00 00 00 00
       0.0 0.0 0.0 0.0
0001a0 00 00 00 00 00 00 00 00 00 00 00 00 00 00 00 00
       0.0 0.0 0.0 0.0
0001b0 00 00 00 00 00 00 00 00 00 00 00 00 00 00 00 00
       0.0 0.0 0.0 0.0
0001c0 00 00 00 00 00 00 00 00 00 00 00 00 00 00 00 00
       0.0 0.0 0.0 0.0
0001d0 00 00 00 00 00 00 00 00 00 00 00 00 00 00 00 00
       0.0 0.0 0.0 0.0
0001e0 00 00 00 00 00 00 00 00 00 00 00 00 00 00 00 00
       0.0 0.0 0.0 0.0
0001f0 00 00 00 00 00 00 00 00 00 00 00 00 00 00 00 00
       0.0 0.0 0.0 0.0
000200 00 00 00 00 00 00 00 00 00 00 00 00 00 00 00 00
       0.0 0.0 0.0 0.0
000210 00 00 00 00 00 00 00 00 00 00 00 00 00 00 00 00
       0.0 0.0 0.0 0.0
000220 00 00 00 00 00 00 00 00 00 00 00 00 00 00 00 00
       0.0 0.0 0.0 0.0
000230 00 00 00 00 00 00 00 00 00 00 00 00 00 00 00 00
       0.0 0.0 0.0 0.0
000240 00 00 00 00 00 00 00 00 00 00 00 00 00 00 00 00
       0.0 0.0 0.0 0.0
000250 00 00 00 00 00 00 00 00 00 00 00 00 00 00 00 00
       0.0 0.0 0.0 0.0
000260 00 00 00 00 00 00 00 00 00 00 00 00 00 00 00 00
       0.0 0.0 0.0 0.0
000270 00 00 00 00 00 00 00 00 00 00 00 00 00 00 00 00
       0.0 0.0 0.0 0.0
000280 00 00 00 00 00 00 00 00 00 00 00 00 00 00 00 00
       0.0 0.0 0.0 0.0
000290 00 00 00 00 00 00 00 00 00 00 00 00 00 00 00 00
       0.0 0.0 0.0 0.0
0002a0 00 00 00 00 00 00 00 00 00 00 00 00 00 00 00 00
       0.0 0.0 0.0 0.0
0002b0 00 00 00 00 00 00 00 00 00 00 00 00 00 00 00 00
       0.0 0.0 0.0 0.0
0002c0 00 00 00 00 00 00 00 00 00 00 00 00 00 00 00 00
       0.0 0.0 0.0 0.0
0002d0 00 00 00 00 00 00 00 00 00 00 00 00 00 00 00 00
       0.0 0.0 0.0 0.0
0002e0 00 00 00 00 00 00 00 00 00 00 00 00 00 00 00 00
       0.0 0.0 0.0 0.0
0002f0 00 00 00 00 00 00 00 00 00 00 00 00 00 00 00 00
       0.0 0.0 0.0 0.0
000300 00 00 00 00 00 00 00 00 00 00 00 00 00 00 00 00
       0.0 0.0 0.0 0.0
000310 00 00 00 00 00 00 00 00 00 00 00 00 00 00 00 00
       0.0 0.0 0.0 0.0
000320 00 00 00 00 00 00 00 00 00 00 00 00 00 00 00 00
       0.0 0.0 0.0 0.0
000330 00 00 00 00 00 00 00 00 00 00 00 00 00 00 00 00
       0.0 0.0 0.0 0.0
000340 00 00 00 00 00 00 00 00 00 00 00 00 00 00 00 00
       0.0 0.0 0.0 0.0
000350 00 00 00 00 00 00 00 00 00 00 00 00 00 00 00 00
       0.0 0.0 0.0 0.0
000360 00 00 00 00 00 00 00 00 00 00 00 00 00 00 00 00
       0.0 0.0 0.0 0.0
000370 00 00 00 00 00 00 00 00 00 00 00 00 00 00 00 00
       0.0 0.0 0.0 0.0
000380 00 00 00 00 00 00 00 00 00 00 00 00 00 00 00 00
       0.0 0.0 0.0 0.0
000390 00 00 00 00 00 00 00 00 00 00 00 00 00 00 00 00
       0.0 0.0 0.0 0.0
0003a0 00 00 00 00 00 00 00 00 00 00 00 00 00 00 00 00
       0.0 0.0 0.0 0.0
0003b0 00 00 00 00 00 00 00 00 00 00 00 00 00 00 00 00
       0.0 0.0 0.0 0.0
0003c0 00 00 00 00 00 00 00 00 00 00 00 00 00 00 00 00
       0.0 0.0 0.0 0.0
0003d0 00 00 00 00 00 00 00 00 00 00 00 00 00 00 00 00
       0.0 0.0 0.0 0.0
0003e0 00 00 00 00 00 00 00 00 00 00 00 00 00 00 00 00
       0.0 0.0 0.0 0.0
0003f0 00 00 00 00 00 00 00 00 00 00 00 00 00 00 00 00
       0.0 0.0 0.0 0.0

exp_avg_sq f4 [256, 129]
000000 00 00 00 00 00 00 00 00 00 00 00 00 00 00 00 00
       0.0 0.0 0.0 0.0
000010 00 00 00 00 00 00 00 00 00 00 00 00 00 00 00 00
       0.0 0.0 0.0 0.0
000020 00 00 00 00 00 00 00 00 00 00 00 00 00 00 00 00
       0.0 0.0 0.0 0.0
000030 00 00 00 00 00 00 00 00 00 00 00 00 00 00 00 00
       0.0 0.0 0.0 0.0
000040 00 00 00 00 00 00 00 00 00 00 00 00 00 00 00 00
       0.0 0.0 0.0 0.0
000050 00 00 00 00 00 00 00 00 00 00 00 00 00 00 00 00
       0.0 0.0 0.0 0.0
000060 00 00 00 00 00 00 00 00 00 00 00 00 00 00 00 00
       0.0 0.0 0.0 0.0
000070 00 00 00 00 00 00 00 00 00 00 00 00 00 00 00 00
       0.0 0.0 0.0 0.0
000080 00 00 00 00 00 00 00 00 00 00 00 00 00 00 00 00
       0.0 0.0 0.0 0.0
000090 00 00 00 00 00 00 00 00 00 00 00 00 00 00 00 00
       0.0 0.0 0.0 0.0
0000a0 00 00 00 00 00 00 00 00 00 00 00 00 00 00 00 00
       0.0 0.0 0.0 0.0
0000b0 00 00 00 00 00 00 00 00 00 00 00 00 00 00 00 00
       0.0 0.0 0.0 0.0
0000c0 00 00 00 00 00 00 00 00 00 00 00 00 00 00 00 00
       0.0 0.0 0.0 0.0
0000d0 00 00 00 00 00 00 00 00 00 00 00 00 00 00 00 00
       0.0 0.0 0.0 0.0
0000e0 00 00 00 00 00 00 00 00 00 00 00 00 00 00 00 00
       0.0 0.0 0.0 0.0
0000f0 00 00 00 00 00 00 00 00 00 00 00 00 00 00 00 00
       0.0 0.0 0.0 0.0
000100 00 00 00 00 00 00 00 00 00 00 00 00 00 00 00 00
       0.0 0.0 0.0 0.0
000110 00 00 00 00 00 00 00 00 00 00 00 00 00 00 00 00
       0.0 0.0 0.0 0.0
000120 00 00 00 00 00 00 00 00 00 00 00 00 00 00 00 00
       0.0 0.0 0.0 0.0
000130 00 00 00 00 00 00 00 00 00 00 00 00 00 00 00 00
       0.0 0.0 0.0 0.0
000140 00 00 00 00 00 00 00 00 00 00 00 00 00 00 00 00
       0.0 0.0 0.0 0.0
000150 00 00 00 00 00 00 00 00 00 00 00 00 00 00 00 00
       0.0 0.0 0.0 0.0
000160 00 00 00 00 00 00 00 00 00 00 00 00 00 00 00 00
       0.0 0.0 0.0 0.0
000170 00 00 00 00 00 00 00 00 00 00 00 00 00 00 00 00
       0.0 0.0 0.0 0.0
000180 00 00 00 00 00 00 00 00 00 00 00 00 00 00 00 00
       0.0 0.0 0.0 0.0
000190 00 00 00 00 00 00 00 00 00 00 00 00 00 00 00 00
       0.0 0.0 0.0 0.0
0001a0 00 00 00 00 00 00 00 00 00 00 00 00 00 00 00 00
       0.0 0.0 0.0 0.0
0001b0 00 00 00 00 00 00 00 00 00 00 00 00 00 00 00 00
       0.0 0.0 0.0 0.0
0001c0 00 00 00 00 00 00 00 00 00 00 00 00 00 00 00 00
       0.0 0.0 0.0 0.0
0001d0 00 00 00 00 00 00 00 00 00 00 00 00 00 00 00 00
       0.0 0.0 0.0 0.0
0001e0 00 00 00 00 00 00 00 00 00 00 00 00 00 00 00 00
       0.0 0.0 0.0 0.0
0001f0 00 00 00 00 00 00 00 00 00 00 00 00 00 00 00 00
       0.0 0.0 0.0 0.0
000200 00 00 00 00 00 00 00 00 00 00 00 00 00 00 00 00
       0.0 0.0 0.0 0.0
000210 00 00 00 00 00 00 00 00 00 00 00 00 00 00 00 00
       0.0 0.0 0.0 0.0
000220 00 00 00 00 00 00 00 00 00 00 00 00 00 00 00 00
       0.0 0.0 0.0 0.0
000230 00 00 00 00 00 00 00 00 00 00 00 00 00 00 00 00
       0.0 0.0 0.0 0.0
000240 00 00 00 00 00 00 00 00 00 00 00 00 00 00 00 00
       0.0 0.0 0.0 0.0
000250 00 00 00 00 00 00 00 00 00 00 00 00 00 00 00 00
       0.0 0.0 0.0 0.0
000260 00 00 00 00 00 00 00 00 00 00 00 00 00 00 00 00
       0.0 0.0 0.0 0.0
000270 00 00 00 00 00 00 00 00 00 00 00 00 00 00 00 00
       0.0 0.0 0.0 0.0
000280 00 00 00 00 00 00 00 00 00 00 00 00 00 00 00 00
       0.0 0.0 0.0 0.0
000290 00 00 00 00 00 00 00 00 00 00 00 00 00 00 00 00
       0.0 0.0 0.0 0.0
0002a0 00 00 00 00 00 00 00 00 00 00 00 00 00 00 00 00
       0.0 0.0 0.0 0.0
0002b0 00 00 00 00 00 00 00 00 00 00 00 00 00 00 00 00
       0.0 0.0 0.0 0.0
0002c0 00 00 00 00 00 00 00 00 00 00 00 00 00 00 00 00
       0.0 0.0 0.0 0.0
0002d0 00 00 00 00 00 00 00 00 00 00 00 00 00 00 00 00
       0.0 0.0 0.0 0.0
0002e0 00 00 00 00 00 00 00 00 00 00 00 00 00 00 00 00
       0.0 0.0 0.0 0.0
0002f0 00 00 00 00 00 00 00 00 00 00 00 00 00 00 00 00
       0.0 0.0 0.0 0.0
000300 00 00 00 00 00 00 00 00 00 00 00 00 00 00 00 00
       0.0 0.0 0.0 0.0
000310 00 00 00 00 00 00 00 00 00 00 00 00 00 00 00 00
       0.0 0.0 0.0 0.0
000320 00 00 00 00 00 00 00 00 00 00 00 00 00 00 00 00
       0.0 0.0 0.0 0.0
000330 00 00 00 00 00 00 00 00 00 00 00 00 00 00 00 00
       0.0 0.0 0.0 0.0
000340 00 00 00 00 00 00 00 00 00 00 00 00 00 00 00 00
       0.0 0.0 0.0 0.0
000350 00 00 00 00 00 00 00 00 00 00 00 00 00 00 00 00
       0.0 0.0 0.0 0.0
000360 00 00 00 00 00 00 00 00 00 00 00 00 00 00 00 00
       0.0 0.0 0.0 0.0
000370 00 00 00 00 00 00 00 00 00 00 00 00 00 00 00 00
       0.0 0.0 0.0 0.0
000380 00 00 00 00 00 00 00 00 00 00 00 00 00 00 00 00
       0.0 0.0 0.0 0.0
000390 00 00 00 00 00 00 00 00 00 00 00 00 00 00 00 00
       0.0 0.0 0.0 0.0
0003a0 00 00 00 00 00 00 00 00 00 00 00 00 00 00 00 00
       0.0 0.0 0.0 0.0
0003b0 00 00 00 00 00 00 00 00 00 00 00 00 00 00 00 00
       0.0 0.0 0.0 0.0
0003c0 00 00 00 00 00 00 00 00 00 00 00 00 00 00 00 00
       0.0 0.0 0.0 0.0
0003d0 00 00 00 00 00 00 00 00 00 00 00 00 00 00 00 00
       0.0 0.0 0.0 0.0
0003e0 00 00 00 00 00 00 00 00 00 00 00 00 00 00 00 00
       0.0 0.0 0.0 0.0
0003f0 00 00 00 00 00 00 00 00 00 00 00 00 00 00 00 00
       0.0 0.0 0.0 0.0

exp_avg f4 [256]
000000 00 00 00 00 00 00 00 00 f2 4f 36 3b 39 68 88 3b
       0.0 0.0 0.0027818647 0.004162815
000010 e0 bc 45 37 00 00 00 00 00 00 00 00 88 d5 c3 ba
       1.1786091e-05 0.0 0.0 -0.0014940957
000020 00 00 00 00 00 00 00 00 00 00 00 00 f0 47 5b bb
       0.0 0.0 0.0 -0.0033459626
000030 00 00 00 00 10 c8 81 ba 18 68 9d 39 00 00 00 00
       0.0 -0.0009901542 0.0003002293 0.0
000040 10 a4 6f 3b 85 ba 98 3b 99 5d 8e ba 00 00 00 00
       0.0036566295 0.0046609067 -0.0010861635 0.0
000050 61 2b 16 bb eb ce 59 3b 00 00 00 00 00 00 00 00
       -0.002291404 0.0033234905 0.0 0.0
000060 00 00 00 00 a2 66 a1 bb 00 00 00 00 74 59 c7 ba
       0.0 -0.004925565 0.0 -0.0015209154
000070 24 60 8e 39 06 09 2f 38 16 cf 2c 3a 9a 13 54 38
       0.0002715598 4.1731655e-05 0.00065921375 5.0562994e-05
000080 94 33 c2 b8 00 00 00 00 00 00 00 00 00 00 00 00
       -9.260248e-05 0.0 0.0 0.0
000090 00 00 00 00 00 00 00 00 00 00 00 00 00 00 00 00
       0.0 0.0 0.0 0.0
0000a0 00 00 00 00 ae 63 0c 35 00 00 00 00 3a 36 43 b9
       0.0 5.229912e-07 0.0 -0.0001861685
0000b0 6d 5c 85 3a 00 00 00 00 00 00 00 00 00 00 00 00
       0.001017464 0.0 0.0 0.0
0000c0 00 00 00 00 ac a3 96 3a 00 00 00 00 7c 3d 19 38
       0.0 0.001149287 0.0 3.6535304e-05
0000d0 00 00 00 00 d1 cb 43 bb 93 60 02 39 00 00 00 00
       0.0 -0.0029876123 0.00012433743 0.0
0000e0 e3 e2 38 3a d5 31 12 b9 00 00 00 00 00 00 00 00
       0.0007052852 -0.00013942209 0.0 0.0
0000f0 d5 74 ae 3a 00 00 00 00 b7 50 f6 37 ba 4b 25 3b
       0.0013309965 0.0 2.9363071e-05 0.0025222139
000100 00 00 00 00 bc 53 d5 37 00 00 00 00 00 00 00 00
       0.0 2.543057e-05 0.0 0.0
000110 e1 a6 84 b6 62 05 5c 39 00 00 00 00 00 00 00 00
       -3.953334e-06 0.0002098284 0.0 0.0
000120 00 00 00 00 00 00 00 00 00 00 00 00 00 00 00 00
       0.0 0.0 0.0 0.0
000130 00 00 00 00 00 00 00 00 00 00 00 00 40 bc 15 3b
       0.0 0.0 0.0 0.0022847801
000140 00 00 00 00 00 00 00 00 77 b1 3d 37 09 21 a0 3a
       0.0 0.0 1.1306597e-05 0.0012216876
000150 00 00 00 00 00 00 00 00 b4 b7 63 bb a9 cd 8d 3a
       0.0 0.0 -0.0034746947 0.0010818738
000160 b6 f4 b2 ba 00 00 00 00 ad 36 6a 3a 63 ae 96 b9
       -0.0013653252 0.0 0.0008934539 -0.00028740158
000170 00 00 00 00 24 7f 5b 3b 44 76 05 3a 00 00 00 00
       0.0 0.003349253 0.00050911703 0.0
000180 c5 27 a7 3a 00 00 00 00 57 b2 95 37 89 d6 2d 3a
       0.0012752941 0.0 1.784523e-05 0.00066313945
000190 03 69 87 ba 00 00 00 00 3a 8b 38 bb 00 00 00 00
       -0.0010330979 0.0 -0.0028159157 0.0
0001a0 00 00 00 00 41 a2 d7 37 00 00 00 00 de f4 7a 39
       0.0 2.5705553e-05 0.0 0.00023933078
0001b0 00 00 00 00 80 f0 cb 3a 00 00 00 00 00 00 00 00
       0.0 0.0015559345 0.0 0.0
0001c0 00 00 00 00 00 00 00 00 00 00 00 00 db 91 33 bb
       0.0 0.0 0.0 -0.002740017
0001d0 ef 53 d5 3a 00 00 00 00 00 00 00 00 00 00 00 00
       0.0016275625 0.0 0.0 0.0
0001e0 31 bb 01 3a 00 00 00 00 00 00 00 00 fc a9 7f 36
       0.0004948853 0.0 0.0 3.8096905e-06
0001f0 dd d0 70 b9 b5 b1 1e b7 e1 c8 7c 39 00 00 00 00
       -0.00022965991 -9.4589095e-06 0.00024107426 0.0
000200 00 00 00 00 6d 41 88 3b cb 0a 60 bb 00 00 00 00
       0.0 0.00415819 -0.003418612 0.0
000210 00 00 00 00 c9 70 5b bb 00 00 00 00 13 bc 66 38
       0.0 -0.0033483973 0.0 5.501143e-05
000220 00 00 00 00 09 ed cd b9 2c 0a e7 37 27 22 92 bb
       0.0 -0.00039277252 2.7542083e-05 -0.0044596377
000230 00 00 00 00 00 00 00 00 00 00 00 00 00 00 00 00
       0.0 0.0 0.0 0.0
000240 00 00 00 00 00 00 00 00 00 00 00 00 00 00 00 00
       0.0 0.0 0.0 0.0
000250 00 00 00 00 00 00 00 00 d4 48 0f 3b df 3d f1 ba
       0.0 0.0 0.0021863477 -0.001840528
000260 00 00 00 00 00 00 00 00 b6 2b 27 bb 00 00 00 00
       0.0 0.0 -0.0025508231 0.0
000270 00 00 00 00 03 e5 f0 37 00 00 00 00 46 17 e0 3a
       0.0 2.8716871e-05 0.0 0.001709678
000280 00 00 00 00 00 00 00 00 00 00 00 00 00 00 00 00
       0.0 0.0 0.0 0.0
000290 6e 5a 71 3a 00 00 00 00 94 0f 99 3a d3 77 ab 3b
       0.00092068955 0.0 0.0011677616 0.00523279
0002a0 3f b6 70 3b e0 84 c7 b4 b9 bc b3 3a 24 2a bb 39
       0.003672972 -3.7163318e-07 0.001371286 0.00035698817
0002b0 00 00 00 00 00 00 00 00 00 00 00 00 eb e6 f9 3a
       0.0 0.0 0.0 0.0019066011
0002c0 00 00 00 00 00 00 00 00 62 7e 92 37 09 8f 56 39
       0.0 0.0 1.7463408e-05 0.00020461915
0002d0 a8 6a 0a 3b 86 74 0c 3a 00 00 00 00 00 00 00 00
       0.00211207 0.00053579395 0.0 0.0
0002e0 9a 1d 9f ba 00 00 00 00 00 00 00 00 0b 93 56 36
       -0.0012139559 0.0 0.0 3.1974075e-06
0002f0 00 00 00 00 02 a4 a3 38 29 6a 2d ba ee f1 58 bb
       0.0 7.8029945e-05 -0.00066152454 -0.0033103186
000300 9a cb 41 3b 00 00 00 00 00 00 00 00 ed ea 71 3b
       0.002957082 0.0 0.0 0.0036913708
000310 79 0c 4c ba 15 61 43 3b 00 00 00 00 00 00 00 00
       -0.0007783841 0.0029812504 0.0 0.0
000320 00 00 00 00 09 66 af 3a 00 00 00 00 6d b4 b4 38
       0.0 0.0013381849 0.0 8.616676e-05
000330 a0 ef 87 3a 00 00 00 00 00 00 00 00 75 f0 1c 38
       0.0010371096 0.0 0.0 3.741724e-05
000340 ef 63 9b 38 00 00 00 00 00 00 00 00 00 00 00 00
       7.40959e-05 0.0 0.0 0.0
000350 84 0c 66 b9 4b 42 95 bb 00 00 00 00 00 00 00 00
       -0.00021939172 -0.004555022 0.0 0.0
000360 00 00 00 00 98 57 06 bb 00 00 00 00 00 00 00 00
       0.0 -0.0020498987 0.0 0.0
000370 00 00 00 00 9d 33 d2 38 9c 12 f7 ba cf f2 5b 37
       0.0 0.00010023194 -0.001885015 1.31099505e-05
000380 00 00 00 00 9a b7 37 3b 00 00 00 00 00 00 00 00
       0.0 0.002803302 0.0 0.0
000390 03 a5 54 bb 4c 36 00 bb 0c b5 8d 37 00 00 00 00
       -0.0032446987 -0.0019563613 1.6892816e-05 0.0
0003a0 00 00 00 00 9b 2c bd 3a 9a de d2 b9 00 00 00 00
       0.0 0.0014432849 -0.00040220172 0.0
0003b0 b5 cc c4 38 00 00 00 00 00 00 00 00 00 00 00 00
       9.384138e-05 0.0 0.0 0.0
0003c0 91 65 ba ba 00 00 00 00 00 00 00 00 f3 57 09 bb
       -0.0014220943 0.0 0.0 -0.0020956963
0003d0 30 5a 36 bb 00 00 00 00 00 00 00 00 03 46 50 36
       -0.0027824752 0.0 0.0 3.1035167e-06
0003e0 33 00 ab ba 34 40 0c 3b 00 00 00 00 d7 27 15 3a
       -0.0013046324 0.0021400573 0.0 0.00056898355
0003f0 00 00 00 00 25 22 cb b9 b8 0f 28 bb 00 00 00 00
       0.0 -0.00038744617 -0.0025644135 0.0

exp_avg_sq f4 [256]
000000 00 00 00 00 00 00 00 00 a5 e2 e0 36 65 65 77 37
       0.0 0.0 6.702105e-06 1.4745955e-05
000010 62 aa 8f 31 00 00 00 00 00 00 00 00 02 ee 20 36
       4.181218e-09 0.0 0.0 2.3980397e-06
000020 00 00 00 00 00 00 00 00 00 00 00 00 65 49 34 37
       0.0 0.0 0.0 1.0745925e-05
000030 00 00 00 00 4f 68 95 35 b2 54 cf 34 00 00 00 00
       0.0 1.1131723e-06 3.8618379e-07 0.0
000040 79 b9 41 37 c8 5a 9a 37 52 79 b6 35 00 00 00 00
       1.154688e-05 1.8400504e-05 1.3595366e-06 0.0
000050 90 c1 aa 36 a3 16 20 37 00 00 00 00 00 00 00 00
       5.0889284e-06 9.542014e-06 0.0 0.0
000060 00 00 00 00 3d 22 ba 37 00 00 00 00 d4 29 1f 36
       0.0 2.2188871e-05 0.0 2.3717193e-06
000070 bc 80 c0 33 50 2b 03 32 a6 35 d8 34 9e 65 f0 33
       8.9641134e-08 7.635052e-09 4.027217e-07 1.1194355e-07
000080 60 c6 8d 33 00 00 00 00 00 00 00 00 00 00 00 00
       6.601908e-08 0.0 0.0 0.0
000090 00 00 00 00 00 00 00 00 00 00 00 00 00 00 00 00
       0.0 0.0 0.0 0.0
0000a0 00 00 00 00 75 b0 52 2d 00 00 00 00 ab a8 06 34
       0.0 1.1976299e-11 0.0 1.2541084e-07
0000b0 4e 5a 68 35 00 00 00 00 00 00 00 00 00 00 00 00
       8.6558146e-07 0.0 0.0 0.0
0000c0 00 00 00 00 53 0a a3 35 00 00 00 00 04 5c 68 33
       0.0 1.2147451e-06 0.0 5.4100397e-08
0000d0 00 00 00 00 ba 16 22 37 cf b5 dd 34 00 00 00 00
       0.0 9.661244e-06 4.129674e-07 0.0
0000e0 ff fd 1a 35 0b 89 62 34 00 00 00 00 00 00 00 00
       5.7739084e-07 2.1097746e-07 0.0 0.0
0000f0 38 44 d1 35 00 00 00 00 a0 62 2e 33 d3 f6 d8 36
       1.5591568e-06 0.0 4.060223e-08 6.4660358e-06
000100 00 00 00 00 7c 62 3c 31 00 00 00 00 00 00 00 00
       0.0 2.7413583e-09 0.0 0.0
000110 0e f1 2e 33 db 94 09 36 00 00 00 00 00 00 00 00
       4.073177e-08 2.0501236e-06 0.0 0.0
000120 00 00 00 00 00 00 00 00 00 00 00 00 00 00 00 00
       0.0 0.0 0.0 0.0
000130 00 00 00 00 00 00 00 00 00 00 00 00 42 f5 a5 36
       0.0 0.0 0.0 4.945935e-06
000140 00 00 00 00 00 00 00 00 8c 54 c0 31 23 e4 bb 35
       0.0 0.0 5.5975473e-09 1.3998982e-06
000150 00 00 00 00 00 00 00 00 16 29 3b 37 b1 23 81 35
       0.0 0.0 1.1155635e-05 9.621637e-07
000160 93 16 23 36 00 00 00 00 77 8e 22 35 b6 37 5c 34
       2.4302033e-06 0.0 6.0557016e-07 2.0509364e-07
000170 00 00 00 00 7b da 1e 37 81 2a 1c 36 00 00 00 00
       0.0 9.468403e-06 2.3270552e-06 0.0
000180 75 d2 c2 35 00 00 00 00 48 57 33 31 4a 7f 08 35
       1.4515377e-06 0.0 2.6097542e-09 5.084918e-07
000190 56 60 a9 35 00 00 00 00 67 a7 fd 36 00 00 00 00
       1.2619519e-06 0.0 7.5594758e-06 0.0
0001a0 00 00 00 00 0a 3f a4 31 00 00 00 00 47 90 b7 33
       0.0 4.780195e-09 0.0 8.5478455e-08
0001b0 00 00 00 00 f3 6f 04 36 00 00 00 00 00 00 00 00
       0.0 1.9734696e-06 0.0 0.0
0001c0 00 00 00 00 00 00 00 00 00 00 00 00 6e 76 01 37
       0.0 0.0 0.0 7.716573e-06
0001d0 63 d4 34 36 00 00 00 00 00 00 00 00 00 00 00 00
       2.6945715e-06 0.0 0.0 0.0
0001e0 46 80 d0 34 00 00 00 00 00 00 00 00 ba 98 31 30
       3.883635e-07 0.0 0.0 6.460926e-10
0001f0 78 b2 ee 33 53 28 4e 33 7e 80 cb 33 00 00 00 00
       1.1115202e-07 4.7999787e-08 9.476297e-08 0.0
000200 00 00 00 00 cc 6e 81 37 9d a3 54 37 00 00 00 00
       0.0 1.5429592e-05 1.2674279e-05 0.0
000210 00 00 00 00 c3 49 39 37 00 00 00 00 51 47 0e 34
       0.0 1.1044033e-05 0.0 1.3250725e-07
000220 00 00 00 00 6e b1 87 34 cf be 6d 31 9f 13 99 37
       0.0 2.5274807e-07 3.4596501e-09 1.8248158e-05
000230 00 00 00 00 00 00 00 00 00 00 00 00 00 00 00 00
       0.0 0.0 0.0 0.0
000240 00 00 00 00 00 00 00 00 00 00 00 00 00 00 00 00
       0.0 0.0 0.0 0.0
000250 00 00 00 00 00 00 00 00 e8 f5 aa 36 28 ff 69 36
       0.0 0.0 5.095022e-06 3.4868226e-06
000260 00 00 00 00 00 00 00 00 e3 71 da 36 00 00 00 00
       0.0 0.0 6.5101644e-06 0.0
000270 00 00 00 00 73 93 3d 33 00 00 00 00 f0 f4 32 36
       0.0 4.4139096e-08 0.0 2.666664e-06
000280 00 00 00 00 00 00 00 00 00 00 00 00 00 00 00 00
       0.0 0.0 0.0 0.0
000290 22 c4 34 35 00 00 00 00 69 ba e0 35 61 34 c4 37
       6.7340636e-07 0.0 1.6743553e-06 2.3389412e-05
0002a0 af 1a 44 37 67 c5 d4 2c fb ce f2 35 d2 b1 7f 34
       1.1688723e-05 6.0473185e-12 1.8090644e-06 2.3813416e-07
0002b0 00 00 00 00 00 00 00 00 00 00 00 00 46 1d 67 36
       0.0 0.0 0.0 3.4438722e-06
0002c0 00 00 00 00 00 00 00 00 ae bc 88 32 34 1f 9f 36
       0.0 0.0 1.5918285e-08 4.742202e-06
0002d0 22 d3 7c 36 f6 27 81 34 00 00 00 00 00 00 00 00
       3.7673822e-06 2.4057198e-07 0.0 0.0
0002e0 9b 7d 0c 36 00 00 00 00 00 00 00 00 f5 50 fa 2f
       2.0934738e-06 0.0 0.0 4.5532259e-10
0002f0 00 00 00 00 ed 20 8f 34 c2 05 12 35 78 59 37 37
       0.0 2.6659782e-07 5.4397617e-07 1.0928481e-05
000300 63 9a ff 36 00 00 00 00 00 00 00 00 fc 5f 42 37
       7.617565e-06 0.0 0.0 1.1585649e-05
000310 f9 99 98 35 09 31 02 37 00 00 00 00 00 00 00 00
       1.1369694e-06 7.760021e-06 0.0 0.0
000320 00 00 00 00 76 a2 e2 35 00 00 00 00 03 89 ae 34
       0.0 1.6885595e-06 0.0 3.2509715e-07
000330 4d e6 85 35 00 00 00 00 00 00 00 00 b9 5f b2 32
       9.976299e-07 0.0 0.0 2.0765457e-08
000340 67 13 d6 32 00 00 00 00 00 00 00 00 00 00 00 00
       2.4921702e-08 0.0 0.0 0.0
000350 ea c4 d9 33 45 6d a8 37 00 00 00 00 00 00 00 00
       1.01406684e-07 2.0078043e-05 0.0 0.0
000360 00 00 00 00 dd 3f a7 36 00 00 00 00 00 00 00 00
       0.0 4.9844225e-06 0.0 0.0
000370 00 00 00 00 54 f9 8e 35 d8 a3 77 36 90 97 64 32
       0.0 1.0652388e-06 3.6901238e-06 1.3305808e-08
000380 00 00 00 00 94 8e f6 36 00 00 00 00 00 00 00 00
       0.0 7.3479696e-06 0.0 0.0
000390 bd 53 30 37 09 50 88 36 bf 65 08 32 00 00 00 00
       1.0509914e-05 4.062433e-06 7.939376e-09 0.0
0003a0 00 00 00 00 14 88 0a 36 c6 ca b0 34 00 00 00 00
       0.0 2.064281e-06 3.2930092e-07 0.0
0003b0 7f 1b d6 32 00 00 00 00 00 00 00 00 00 00 00 00
       2.4925383e-08 0.0 0.0 0.0
0003c0 31 95 0c 36 00 00 00 00 00 00 00 00 a7 8c 94 36
       2.0948466e-06 0.0 0.0 4.427118e-06
0003d0 bc b7 f3 36 00 00 00 00 00 00 00 00 3f da e7 2f
       7.263354e-06 0.0 0.0 4.2173728e-10
0003e0 80 50 f0 35 9d f1 a9 36 00 00 00 00 a0 90 a9 34
       1.7904822e-06 5.06472e-06 0.0 3.1583932e-07
0003f0 00 00 00 00 82 57 f2 34 12 66 d3 36 00 00 00 00
       0.0 4.5139683e-07 6.3001726e-06 0.0

exp_avg f4 [2, 256]
000000 00 00 00 00 00 00 00 00 fc c1 33 3e f8 ac 6a 3e
       0.0 0.0 0.17554468 0.22917545
000010 8a ee 01 bc 00 00 00 00 00 00 00 00 b1 61 b5 3d
       -0.007930407 0.0 0.0 0.08856524
000020 00 00 00 00 00 00 00 00 00 00 00 00 04 63 9f 3d
       0.0 0.0 0.0 0.077825576
000030 00 00 00 00 1f 8a 0d 3e 8d ae b4 3c 00 00 00 00
       0.0 0.1382222 0.022055889 0.0
000040 59 55 2f 3e 34 ff 6a 3e c6 5a c3 3d 00 00 00 00
       0.17122401 0.22948915 0.09538798 0.0
000050 27 e0 36 3e 04 e1 64 3e 00 00 00 00 00 00 00 00
       0.17858945 0.22351462 0.0 0.0
000060 00 00 00 00 74 65 18 3e 00 00 00 00 7f 28 2c 3e
       0.0 0.14882451 0.0 0.16812323
000070 f9 d4 c6 3d 01 fa 96 3b c0 74 21 3e 59 9b f9 39
       0.0970859 0.0046074395 0.15767193 0.00047608724
000080 a4 7c 44 3c 00 00 00 00 00 00 00 00 00 00 00 00
       0.011992607 0.0 0.0 0.0
000090 00 00 00 00 00 00 00 00 00 00 00 00 00 00 00 00
       0.0 0.0 0.0 0.0
0000a0 00 00 00 00 2a 56 da b4 00 00 00 00 85 27 ba 3c
       0.0 -4.0668357e-07 0.0 0.022723923
0000b0 27 08 5f 3e 00 00 00 00 00 00 00 00 00 00 00 00
       0.21780454 0.0 0.0 0.0
0000c0 00 00 00 00 c1 e2 32 3e 00 00 00 00 d5 b3 41 3c
       0.0 0.17469312 0.0 0.01182266
0000d0 00 00 00 00 9c ed 22 bc 7d a1 95 bb 00 00 00 00
       0.0 -0.009944346 -0.00456637 0.0
0000e0 57 2d ce 3d ee f1 cb bc 00 00 00 00 00 00 00 00
       0.10067242 -0.024895635 0.0 0.0
0000f0 f3 e4 26 3e 00 00 00 00 21 b5 a7 39 bc 60 8c 3d
       0.16298275 0.0 0.00031987674 0.06854388
000100 00 00 00 00 cc e1 45 3c 00 00 00 00 00 00 00 00
       0.0 0.01207776 0.0 0.0
000110 a9 b0 da bb 15 e4 c0 bb 00 00 00 00 00 00 00 00
       -0.0066738916 -0.0058865645 0.0 0.0
000120 00 00 00 00 00 00 00 00 00 00 00 00 00 00 00 00
       0.0 0.0 0.0 0.0
000130 00 00 00 00 00 00 00 00 00 00 00 00 2f bb 0a 3e
       0.0 0.0 0.0 0.13547967
000140 00 00 00 00 00 00 00 00 3c c5 ea 38 f1 df d0 3d
       0.0 0.0 0.00011194727 0.101989634
000150 00 00 00 00 00 00 00 00 ef b7 82 3e ab c9 b4 3e
       0.0 0.0 0.25530955 0.3531011
000160 56 5c c3 3b 00 00 00 00 28 11 e0 3e 86 9e 0a 3d
       0.005961935 0.0 0.4376309 0.033842586
000170 00 00 00 00 26 de 96 3e 27 13 5f 3c 00 00 00 00
       0.0 0.2946636 0.013615406 0.0
000180 e4 f5 3e 3e 00 00 00 00 8b cb 92 3b 3b 16 c2 3d
       0.18648487 0.0 0.0044798306 0.094768964
000190 ec 4d b8 3d 00 00 00 00 e2 76 22 3e 00 00 00 00
       0.089992374 0.0 0.15865663 0.0
0001a0 00 00 00 00 b4 e7 5b bc 00 00 00 00 0d b7 b7 3d
       0.0 -0.013421942 0.0 0.08970461
0001b0 00 00 00 00 e9 1b a2 3e 00 00 00 00 00 00 00 00
       0.0 0.3166192 0.0 0.0
0001c0 00 00 00 00 00 00 00 00 00 00 00 00 55 3c df 3c
       0.0 0.0 0.0 0.027250448
0001d0 07 00 cb 3d 00 00 00 00 00 00 00 00 00 00 00 00
       0.099121146 0.0 0.0 0.0
0001e0 cb a8 70 3d 00 00 00 00 00 00 00 00 de cf 2b 3a
       0.058754724 0.0 0.0 0.0006554107
0001f0 87 22 6c 3e 3a e9 5e bc 5f 12 34 3d 00 00 00 00
       0.23060046 -0.01360541 0.043962833 0.0
000200 00 00 00 00 41 6c 0f 3e 05 a3 95 bc 00 00 00 00
       0.0 0.1400614 -0.01826621 0.0
000210 00 00 00 00 a9 7c 13 3d 00 00 00 00 dc 9d d1 38
       0.0 0.036007557 0.0 9.9953e-05
000220 00 00 00 00 83 93 ea 3d c1 a4 f2 bb de 7d 21 3e
       0.0 0.11453917 -0.007404894 0.15770671
000230 00 00 00 00 00 00 00 00 00 00 00 00 00 00 00 00
       0.0 0.0 0.0 0.0
000240 00 00 00 00 00 00 00 00 00 00 00 00 00 00 00 00
       0.0 0.0 0.0 0.0
000250 00 00 00 00 00 00 00 00 b7 27 96 3d 24 40 d9 3d
       0.0 0.0 0.07331794 0.10607937
000260 00 00 00 00 00 00 00 00 02 82 7d 3d 00 00 00 00
       0.0 0.0 0.061891563 0.0
000270 00 00 00 00 aa 49 1d 3a 00 00 00 00 a3 2b 22 3e
       0.0 0.00060000515 0.0 0.15836959
000280 00 00 00 00 00 00 00 00 00 00 00 00 00 00 00 00
       0.0 0.0 0.0 0.0
000290 1d b8 a7 3e 00 00 00 00 85 99 bb 3d 65 5b 82 3e
       0.32757655 0.0 0.09160141 0.25460353
0002a0 73 35 48 3e de e8 ea 37 6b fe dd 3d f9 7f 53 3d
       0.1955164 2.8003411e-05 0.10839542 0.051635716
0002b0 00 00 00 00 00 00 00 00 00 00 00 00 99 95 d9 3d
       0.0 0.0 0.0 0.106242366
0002c0 00 00 00 00 00 00 00 00 de 8b dd bb 77 25 c3 bb
       0.0 0.0 -0.0067610582 -0.005955394
0002d0 fc 0d 6f 3e 2f e0 60 3e 00 00 00 00 00 00 00 00
       0.23345178 0.21960519 0.0 0.0
0002e0 ab e3 8c bb 00 00 00 00 00 00 00 00 d3 6c e1 39
       -0.004299601 0.0 0.0 0.00042996425
0002f0 00 00 00 00 3e 3a 8b 39 03 ae 7f 3e a6 c0 bf 3c
       0.0 0.0002655554 0.24968724 0.023407292
000300 2c 42 42 3e 00 00 00 00 00 00 00 00 a1 b0 88 3e
       0.18970555 0.0 0.0 0.26697257
000310 51 23 93 bc 3c 18 2a 3e 00 00 00 00 00 00 00 00
       -0.017961176 0.16610807 0.0 0.0
000320 00 00 00 00 9b 29 e9 3d 00 00 00 00 7e e0 e1 39
       0.0 0.11384889 0.0 0.00043082604
000330 11 20 05 3e 00 00 00 00 00 00 00 00 39 60 62 3c
       0.13000514 0.0 0.0 0.013816887
000340 e7 c1 9f 3b 00 00 00 00 00 00 00 00 00 00 00 00
       0.00487541 0.0 0.0 0.0
000350 ca 98 6a 3e b4 d1 9d 3c 00 00 00 00 00 00 00 00
       0.22909847 0.019265033 0.0 0.0
000360 00 00 00 00 98 b4 27 bb 00 00 00 00 00 00 00 00
       0.0 -0.002558982 0.0 0.0
000370 00 00 00 00 e7 02 c2 bb 8c d2 9f 3d f9 1a 30 bc
       0.0 -0.005920756 0.078038305 -0.010748618
000380 00 00 00 00 e6 9e df 3d 00 00 00 00 00 00 00 00
       0.0 0.10918979 0.0 0.0
000390 1d 12 d3 3c f9 61 31 3d d5 13 58 bc 00 00 00 00
       0.025765473 0.043306325 -0.013188322 0.0
0003a0 00 00 00 00 d0 46 fc 3d 57 0b 02 3d 00 00 00 00
       0.0 0.12318194 0.031749096 0.0
0003b0 16 f8 8e 3c 00 00 00 00 00 00 00 00 00 00 00 00
       0.017452281 0.0 0.0 0.0
0003c0 1f 67 b7 bc 00 00 00 00 00 00 00 00 3e ac a8 3d
       -0.02238804 0.0 0.0 0.082359776
0003d0 c9 9f a9 3e 00 00 00 00 00 00 00 00 a7 dc 93 38
       0.3312972 0.0 0.0 7.050606e-05
0003e0 fc 18 54 3e 3a d4 9e 3d 00 00 00 00 08 93 13 3e
       0.20712656 0.07755323 0.0 0.14411557
0003f0 00 00 00 00 34 45 5e bc 05 7c 4f 3e 00 00 00 00
       0.0 -0.013566304 0.20262153 0.0
